…
e-05, 'g_lr': 0.0001, 'e_is_grad_clamp': False, 'g_is_grad_clamp': False, 'e_max_norm': 100, 'g_max_norm': 100, 'e_decay': 0, 'g_decay': 0, 'e_gamma': 0.998, 'g_gamma': 0.998, 'g_beta1': 0.5, 'g_beta2': 0.999, 'e_beta1': 0.5, 'e_beta2': 0.999, 'n_epochs': 201, 'n_printout': 500, 'n_plot': 1, 'n_ckpt': 10, 'n_metrics': 20, 'n_stats': 1, 'n_fid_samples': 50000, 'job_id': 0, 'status': 'open', 'device': 0}
2022-02-20 23:39:04,891 : len(ds_train)=73257
2022-02-20 23:39:04,891 : len(ds_val)=26032
2022-02-20 23:39:16,176 : ds_fid.shape=(73257, 3, 32, 32)
2022-02-20 23:39:16,303 : _netG(
  (conv1): ConvTranspose2d(100, 512, kernel_size=(4, 4), stride=(1, 1))
  (batchnorm): Identity()
  (conv2): ConvTranspose2d(512, 256, kernel_size=(4, 4), stride=(2, 2), padding=(1, 1))
  (conv3): ConvTranspose2d(256, 128, kernel_size=(4, 4), stride=(2, 2), padding=(1, 1))
  (conv4): ConvTranspose2d(128, 3, kernel_size=(4, 4), stride=(2, 2), padding=(1, 1))
  (tanh): Tanh()
  (conv5): Conv2d(3, 64, kernel_size=(3, 3), stride=(1, 1), padding=(1, 1), bias=False)
  (leakyrelu): LeakyReLU(negative_slope=0.2, inplace=True)
  (conv6): Conv2d(64, 128, kernel_size=(4, 4), stride=(4, 4), padding=(1, 1), bias=False)
  (conv7): Conv2d(128, 256, kernel_size=(4, 4), stride=(2, 2), padding=(1, 1), bias=False)
  (conv71): Conv2d(256, 100, kernel_size=(4, 4), stride=(1, 1))
  (conv72): Conv2d(256, 100, kernel_size=(4, 4), stride=(1, 1))
)
2022-02-20 23:39:16,303 : _netE(
  (ebm): Sequential(
    (0): Linear(in_features=100, out_features=200, bias=True)
    (1): LeakyReLU(negative_slope=0.2)
    (2): Linear(in_features=200, out_features=200, bias=True)
    (3): LeakyReLU(negative_slope=0.2)
    (4): Linear(in_features=200, out_features=1, bias=True)
  )
)
2022-02-20 23:39:19,446 : Langevin prior   1/ 60: energy=   4.426
2022-02-20 23:39:19,459 : Langevin prior   6/ 60: energy=   4.333
2022-02-20 23:39:19,459 : Langevin prior  11/ 60: energy=   5.632
2022-02-20 23:39:19,459 : Langevin prior  16/ 60: energy=   4.752
2022-02-20 23:39:19,459 : Langevin prior  21/ 60: energy=   5.343
2022-02-20 23:39:19,474 : Langevin prior  26/ 60: energy=   4.667
…
